DQNorb/agent.pt (torch, 205182 bytes, 20 tensors)

conv1.weight f4 [16, 3, 5, 5]
00000000: ef5d d2bc 8d45 9fbd 23fe b1bd 7f83 adbd
00000010: a4e8 a6bd dbc9 79bd 56cb 713c 0afa 1ebd
00000020: be0e 6d3d 0151 15bd 133f b6bd 7425 853d
00000030: 3a76 5cbd bd14 d03d 2a7c 63bc e5d8 a33d
00000040: 2bef dbbc 94df e6bd af11 3d3d c056 ae3d
00000050: e3c8 e9bd b482 2d3d 513b 7cbb 2cbf 203d
00000060: 4da7 75bb db73 5d3d 504e 25bf 19ec 68bf
00000070: 94d0 b6bf 4ea3 b4bf 2660 45bd 4e78 283e
00000080: 7a65 38bd 8c4f 97bf 5404 3dbf 2ca2 00bf
00000090: ba98 b3be 000e 683e e94d 85bf 4faa 63bf
000000a0: d51c 303f 04ab 3d3f 209c 1e3f 0105 05bf
000000b0: 7418 87bf ebf7 8e3f 5a64 dd3f 6bb7 5c3f
000000c0: d860 413f 6daa 823e cba2 92bc 2f5f 4fbc
000000d0: 17d2 98bc 78fc 5d3d 437d 77bc b994 613d
000000e0: 332f c5bd b63f 2e3d e5f9 d63c 3940 4a3d
000000f0: 71b3 dd3d 78ac 75bd 9e81 9c3d 0c6d a43c
00000100: cbbb da3d 11fa ba3d 9004 b33c cba1 643d
00000110: 70e3 e93d 7476 76bc 4651 e43d 40e1 dc3c
00000120: d701 223d 8e55 debd e40c 92bd 9a22 d33d
00000130: c4bb d53d 4b2b a53d e37f 8dbd 80c7 adbd
00000140: c704 c33d 47a0 80bd d4df b7bb 24ff 923c
00000150: eda3 1a3c 007c 513d bba3 e8bd ddf9 e3bd
00000160: 0fad d0bd c104 e9b7 1015 8fbc 9929 cfbd
00000170: a3c1 5e3c 8a56 a93d e804 573d 399e 11bd
00000180: 1337 92bd cb1f 76bd 4d7c 0cbb f56f 3a3d
00000190: 07c1 08bf 8d3c a2bf 8de2 853e 85a9 85be
000001a0: 362d 42bf d055 00be 5a45 03bf 3f94 54bc
000001b0: 9f09 4fbf d669 4fbe 0d8f 633f 4e65 8e3f
000001c0: c3f2 0bbf 6cec bdbf 9c96 a9be 1f67 423f
000001d0: 5481 c43f 326c dcbe 4670 ecbe 2992 b73f
000001e0: 384d 4ebf 1206 023e 066a 50be 5816 fc3c
000001f0: 1af0 993f 6724 65bd 34a1 1dbd 7701 aa3d
00000200: 6be1 8f3c 0e79 a5bd 1299 1b3c 6e1b ac3d
00000210: 9cbd e8bd 69f5 87bd 2feb a9bb 6927 00bd
00000220: 512b c9bd bf7b c03d 6b4e b1bd 6d21 d0bd
00000230: 4178 0e3c 828b 323d 517f d33d 7bd6 133d
00000240: f222 d93d 398c d7bc a63f 3abd 1526 debd
00000250: f63d 173d 0aff b6bc 3409 03bd 8c0c adbd
00000260: 7b97 8fbd 75fd 1f3b 9a70 053d 3f5a 283d
00000270: eb53 42bd f3c9 e5bd bbfc c7bd af50 de3d
00000280: 83ad 783d 51cf bfbd b6ec adbd 787b e73d
00000290: 0eef 0b3d 7bb5 8c3d f0b0 683d ffb2 e2bd
000002a0: ca8c 81bc da21 e1bd 1305 82bd a056 773d
000002b0: 647c 91bd bffb 54bc 7c2b ae3d 8989 b13d
000002c0: c8be 0b3f a3eb 943e b247 4c3e f6df abbe
000002d0: 7b5a 24be c494 c53e 7374 173f 6a82 c73f
000002e0: 99d6 173f 06d1 113f a035 c63f 908f 623f
000002f0: 9422 2340 3e51 963f 8da8 e33e 19e6 053f
00000300: bcb2 04bf 2c23 653f 7572 1e3f 767c 4d3f
00000310: ee08 943e 8409 7fbf 83c3 4e3e f368 4a3e
00000320: ca6f 74bd 5056 c3bd 5a48 0d3d 7f84 e23d
00000330: eb8a 1d3c 83b9 893c 3a0b 623d 944e 6f3d
00000340: 794c 943d b575 e03c a143 4f3d cb52 e2bd
00000350: c8f2 cdbd a00e 4bbd c66f 9dbd b36c 613d
00000360: 6ea3 833d ea90 6a3d 1138 893c a34f d5ba
00000370: 2209 88bd 2951 a7bd 3d43 453d 3729 d4bd
00000380: 2aba a03c 0a51 cebb a11f ab3d 01a0 87bd
00000390: 683b e23d 91b3 993d 9133 093c fa9c d03d
000003a0: 48e8 8a3d 2460 52bd 202c 563d b417 bdbb
000003b0: e309 07ba 3de5 653c 08ca 95bd 4d83 bfbd
000003c0: 682b 373c ce47 d73d 19e0 8cbd 15f1 dd3d
000003d0: ccf6 773c 85ac 773d a0b5 693d ce4c dbbd
000003e0: 46e3 5cbd ef2a 4f3b f7a8 69bf 5c89 b2bf
000003f0: 01ad 32bf 7908 a43d 8c46 0abf 5fce 54be
-0.025679557 -0.07776938 -0.08691051 -0.084723465 -0.081498414 -0.06098352 0.014757952 -0.038812675
0.057875387 -0.036454204 -0.08898749 0.06501284 -0.053823687 0.101602055 -0.0138845835 0.08000354
-0.026847443 -0.11273113 0.046159443 0.0851264 -0.11415269 0.042360976 -0.0038487504 0.039244816
-0.0037483752 0.054065567 -0.6457262 -0.90985256 -1.4282403 -1.4112337 -0.048187397 0.16452143
-0.04501865 -1.1821151 -0.7383473 -0.50247455 -0.3507746 0.2266159 -1.0414401 -0.88931745
0.68793994 0.74089074 0.6195698 -0.5196076 -1.0554338 1.1169409 1.729625 0.86217374
0.75538397 0.2552065 -0.017899891 -0.012656971 -0.018654866 0.05419585 -0.015105548 0.055073474
-0.09628143 0.04254123 0.026242206 0.049377654 0.10825241 -0.059978932 0.0764191 0.020071529
0.1068035 0.09129728 0.021852762 0.05581836 0.114203334 -0.01504289 0.11148314 0.026962876
0.039552536 -0.10856162 -0.07131365 0.10309334 0.10436204 0.08064898 -0.06909158 -0.08485317
0.095223956 -0.062805705 -0.005611399 0.017943926 0.009438497 0.051143646 -0.11359354 -0.11131642
-0.10189258 -2.7777978e-05 -0.017466098 -0.10115356 0.013595971 0.08268459 0.052494913 -0.035551284
-0.07139411 -0.060088914 -0.0021436394 0.045516927 -0.53419536 -1.2674729 0.26149407 -0.26105896
-0.75850236 -0.12532735 -0.512777 -0.012974798 -0.80874056 -0.20255217 0.88890153 1.1124666
-0.546673 -1.4837775 -0.33122718 0.759386 1.5351968 -0.43051296 -0.46179408 1.434148
-0.80586576 0.12697628 -0.20352945 0.030772373 1.2026398 -0.05594292 -0.038483813 0.08301061
0.017563542 -0.0807973 0.009496944 0.08403669 -0.1136429 -0.06638605 -0.005185507 -0.031287584
-0.09822715 0.09398603 -0.08657535 -0.101626255 0.008695663 0.043590076 0.10327018 0.036093216
0.106023684 -0.02631198 -0.045470856 -0.10847107 0.036924325 -0.022338409 -0.0319912 -0.08449659
-0.070113145 0.0024412547 0.03257809 0.04110169 -0.04744331 -0.112201594 -0.097650014 0.10855233
0.06071235 -0.09365714 -0.08492415 0.11302847 0.034163527 0.06870552 0.056809366 -0.11069297
-0.015814204 -0.10992785 -0.06348624 0.060385346 -0.07103804 -0.012999474 0.08504388 0.08668811
0.54587984 0.29086027 0.19949225 -0.33569306 -0.1605014 0.38590062 0.5916206 1.5586674
0.59311825 0.5695957 1.5485115 0.8850031 2.5489855 1.1743543 0.44464532 0.52304226
-0.51835227 0.89506793 0.618934 0.8026804 0.28913063 -0.99623895 0.2019177 0.19766597
-0.059676923 -0.09537947 0.034492828 0.11060428 0.00961564 0.016812092 0.055186488 0.058424547
0.072411485 0.027399877 0.050601605 -0.11050948 -0.100560725 -0.049574494 -0.07687335 0.055035304
0.06427656 0.057267107 0.016750367 -0.0016274344 -0.06642367 -0.08169777 0.048159827 -0.103594236
0.01962002 -0.0062962817 0.08355642 -0.06622315 0.11046487 0.07504953 0.008374111 0.10186191
0.067825854 -0.051361218 0.052288175 -0.005770648 -0.00051513145 0.014031705 -0.07313925 -0.093512155
0.011179782 0.105117425 -0.06878681 0.108369984 0.015134525 0.06046726 0.057057977 -0.10708009
-0.053927682 0.0031611284 -0.91273445 -1.3948169 -0.69795233 0.080094285 -0.54013896 -0.2078185

conv1.bias f4 [16]
00000000: ce72 4b3f abcb 19bf 2ac5 32bf 44d8 883f
00000010: a67e 7c3e 1794 0d3d cfbb a4bf ba8a 823f
00000020: a570 00bd 9381 a7be 8672 753f cde2 42bf
00000030: 90bf 4c3f 97be 01bd 52fd 16bf 0904 903e
0.79472053 -0.600764 -0.698321 1.0690999 0.24657688 0.034565058 -1.2869815 1.0198586
-0.031357426 -0.32716045 0.95877874 -0.7612732 0.799798 -0.0316759 -0.58980286 0.2812808

bn1.weight f4 [16]
00000000: 6888 9c3f ed73 1d40 2e52 293f 4c76 a73f
00000010: 0996 183f 5496 fd3f 5592 b43f 7e04 853f
00000020: 4d4c 8c3f 7610 b23f 5232 303f 1e1b 0940
00000030: 4907 853f e367 173f 5ffd d23f 2a25 1540
1.2229128 2.4602005 0.6614102 1.3082976 0.59603935 1.9811502 1.4107157 1.0391996
1.0960785 1.3911273 0.6882678 2.14228 1.0392848 0.59142894 1.6483573 2.3303933

bn1.bias f4 [16]
00000000: 5916 f83d eddd e73e f7d4 64be 2865 4abe
00000010: 54e0 8ebf bd15 e8be a590 93be 7dea 3abf
00000020: b99e 313e baf0 9dbe 99a1 83bf cebc 123e
00000030: 97bf 9136 a5d1 55bf 8c98 15be ef8d c73e
0.121136375 0.45286503 -0.22346865 -0.1976515 -1.116221 -0.45329085 -0.28821293 -0.7301405
0.17345704 -0.30847722 -1.0283691 0.14329836 4.3436407e-06 -0.8352302 -0.14608973 0.38975474

bn1.running_mean f4 [16]
00000000: fcef 163f b153 35bf 23ff f5bb 3baa c23f
00000010: 847a 733e 2558 193d e406 4bbf 26cd c63f
00000020: e116 01bf 7a9d 96be 5328 a53f c75c 96bf
00000030: b032 913f d75c ae3d b1d8 5dbf 3598 a53d
0.5895994 -0.7083083 -0.0075072213 1.52082 0.23777205 0.037437577 -0.7930739 1.5531356
-0.50425535 -0.2941702 1.2902931 -1.1747063 1.1343594 0.085138015 -0.8665877 0.08085672

bn1.running_var f4 [16]
00000000: 3555 a03f 2385 ea3e 0062 e53f 59b1 cc3f
00000010: 41d5 103f b2cc ff3e 1cf8 ef3f 131c e73f
00000020: 7f89 d03f 88ac 853f cad7 773f 3bda 7e3f
00000030: b3aa a13f af26 473f 8d8e 953f 59fa 3d3f
1.2526003 0.458047 1.7920532 1.5991622 0.565754 0.49960858 1.8747592 1.8055443
1.629196 1.0443277 0.9681364 0.99551743 1.2630218 0.777934 1.1684128 0.74210125

conv2.weight f4 [32, 16, 5, 5]
00000000: 25ea c83f beee b7be d67e 693f ad08 b63e
00000010: 58cc 2e3d 8820 fa3f f8a8 653f 120d a6be
00000020: ce77 9a3f af6e 64bd df10 74bf 60f5 413f
00000030: 81b3 3f3f b242 c5bf ed00 0c3f 429b 963f
00000040: 675b 153f 9674 263f 5562 39bf 5ccc 5f3f
00000050: 51db 093e b14c 243f 6a93 f83b 51f2 253f
00000060: cd48 7f3f 3b54 3bbf 7a62 c6bd 6a99 42bf
00000070: b828 c13f e258 a13e ba87 683f 7a1e c63f
00000080: 9622 45bf 05f2 893f a59b 1ebf c2eb f63e
00000090: 063b 6b3e e892 d9be a942 b73d b411 e93e
000000a0: a9a9 543e 2334 9a3e 7730 df3f ed51 8fbe
000000b0: 8ba5 023f 6729 523f e481 8c3f a77b 45bf
000000c0: 0698 963f c0ee 103f 60e1 dfbe cfb1 5c3f
000000d0: caa9 b23f 60ea 9e3f 7055 513f 6a5c fabe
000000e0: d627 253f 521a 5c3f ab94 353f a4b5 a73d
000000f0: 6624 dbbe 04a5 cc3d 3b4f 983f 5603 853f
00000100: 3fd0 bcbe ab3d 06bf 2625 0dbe 9a4a 9ebc
00000110: 2c1c 253f 2615 96bf 9641 b2be 1f2a df3e
00000120: 41cb 2f3e a6f0 8cbe 197b f9bf dd15 e7bd
00000130: df75 333f 3834 a33f 4742 383f 0f4d 1b3f
00000140: 2c57 e23c 552b f83e a0e2 863f d8c3 603f
00000150: c58c 2a3f 7650 07bf 3823 7bbd 6c0f 513f
00000160: e476 4c3f c3b6 23bf a6fc 00bd 9e9f 003f
00000170: 428a 523f 571a 163f 984c 05c0 9af0 3cbc
00000180: 901b 383f 6232 a73e c3be 1a3e 491c bcbf
00000190: bccb 5b3f f550 a5be ad8f cd3f 0b0a b93f
000001a0: f5f1 99bf 4d02 d63e e3ab 843f b00d 32bf
000001b0: e4a1 ca3e 309d d9be 212a b8bf 63b5 823e
000001c0: 90d7 37bf 7be4 553f ddda c8be 11f4 49be
000001d0: 1e38 9c3d 7451 bb3f 00c1 9b3e e778 a7bd
000001e0: 8e68 86be 9a89 7cbe 8158 25bf a0c0 fabe
000001f0: 9b19 d8be cc60 fd3e 2f2b 503f c859 30bf
00000200: a90a 593f 675f aa3f 5467 e13f f531 b2bf
00000210: 48ff 283f 6d5a a23f f16f 21bd 1eb7 ab3f
00000220: 37e7 c4bf ec9f d13e 4803 9ebe 36cb b33e
00000230: b450 793f 00b2 51bd da30 1cbf c798 523f
00000240: afe0 5e3f 5d9b 7b3f 3bc3 07bf 2eda 5c3e
00000250: 2a37 81bf 763d b23f 8aa3 0c3f f40b 293f
00000260: d0c5 a03f fb73 cb3f de0a 753f 89e3 59be
00000270: c466 593f 66c7 843f 791c 0a3f 96d3 ed3e
00000280: 2f13 ec3d cb99 2c3f 23c0 883f 760b 1b3f
00000290: f7f8 0f3f 4600 41bf 3704 113e e42c cc3e
000002a0: 961c 163f feaa 45bf bba5 f7be 2abf 313f
000002b0: bcf5 3d3e 7eda b13e e0d0 debf d16d fe3e
000002c0: 1a88 d13e 408b d13f 1bc8 553f 752e 0d3f
000002d0: d022 593f f7b2 0b3e c362 5e3f 52c3 2b3f
000002e0: 5994 f43e db36 14bf b1c5 443e d5aa e33e
000002f0: c35a 5a3f 24c3 28be 3e25 d3bd b5dd 183f
00000300: 34c4 333f 3af7 563d a350 84bf 236e b63e
00000310: 1cb1 ecbe f16a 283f 3c45 953e abc1 92be
00000320: 83e7 2ebf f03f 4c3f b315 66bf 4b4b c3bd
00000330: 78da 173d b812 1ebf 5e90 4d3f 018b 39bf
00000340: 4260 3b3e 9ad9 a13e 7844 9cbf 89e4 743f
00000350: 797c b83f 56bc 5b3f ff40 b73c 0732 953e
00000360: f749 ba3f 7169 cbbd ae40 143f 9066 983f
00000370: 37ed 3e3d 8650 b43f a248 753e f75e b83f
00000380: b3f3 1e3f bc54 193f 2ee7 113f 3c5d c33f
00000390: ef69 9c3f 98fa 0d3e 92a5 8dbf 5be5 4b3f
000003a0: eb1c c63e 84b1 8c3f 9bcf 063d 590c cbbe
000003b0: de65 783f 17dd ab3f 2ec6 363e 9415 df3e
000003c0: eeb9 27bf 4843 acbd c748 38be 0ee9 85be
000003d0: aa35 5bbf f36a 03bf ead8 343f 26fc eebd
000003e0: def3 843f 95f3 e1bf 16e4 df3e e7b5 8f3f
000003f0: 57ee e63e e97b 863f c15d 863f b13a bd3e
1.5696455 -0.35924333 0.9120916 0.35553494 0.042675346 1.9541178 0.8971095 -0.32431847
1.2067811 -0.05576962 -0.95338243 0.7576504 0.74883276 -1.5410979 0.5468891 1.1766131
0.58342594 0.65021646 -0.7241567 0.874212 0.13462569 0.6417952 0.0075859325 0.6482287
0.9972046 -0.731754 -0.09686752 -0.7601534 1.5090551 0.31513125 0.908321 1.5478051
-0.770059 1.0776983 -0.61956245 0.48226744 0.22971734 -0.42494893 0.08948261 0.4552132
0.20767845 0.30117902 1.7436665 -0.27992192 0.5103385 0.82094425 1.097714 -0.77141804
1.1765144 0.56614304 -0.43726635 0.86208814 1.3958066 1.2415276 0.8177099 -0.4889863
0.6451391 0.8597766 0.70929974 0.08188942 -0.42801207 0.09992412 1.1899179 1.0391643
-0.3687763 -0.5243785 -0.13783702 -0.019322682 0.6449611 -1.1725204 -0.34815663 0.43586823
0.17167379 -0.2752735 -1.9490691 -0.11283467 0.7010173 1.2750311 0.7197613 0.6066446
0.027629457 0.4847056 1.053791 0.87798834 0.6662105 -0.5285715 -0.061312884 0.81664157
0.7986891 -0.6395075 -0.031490944 0.50243556 0.82242215 0.5863394 -2.0828 -0.011531973
0.7191706 0.32655627 0.15111832 -1.4696132 0.8585775 -0.32288328 1.6059471 1.445619
-1.2026964 0.4179863 1.0364956 -0.69552135 0.39576638 -0.42502737 -1.4387857 0.25529012
-0.718133 0.8355176 -0.3922948 -0.1972201 0.07627891 1.4634233 0.30420685 -0.08177357
-0.26251644 -0.24661866 -0.6458817 -0.48975086 -0.42207035 0.49487913 0.8131589 -0.68886995
0.8478189 1.3310364 1.7609658 -1.3921496 0.6601453 1.2683846 -0.039413396 1.3415258
-1.5383061 0.40942323 -0.30861878 0.35115975 0.9738877 -0.051195145 -0.6101204 0.8226437
0.8706159 0.9828394 -0.53032273 0.21567604 -1.009496 1.3925006 0.5493704 0.66033864
1.2560368 1.589477 0.95719707 -0.21278204 0.8492243 1.0373352 0.53949696 0.4645049
0.115270965 0.6742217 1.0683635 0.60564363 0.56239265 -0.7539104 0.14161764 0.39878
0.5863737 -0.7721404 -0.4836863 0.6943232 0.18550771 0.3473701 -1.7407494 0.49693158
0.4092415 1.6370621 0.8350846 0.5514901 0.84818745 0.13642488 0.8686945 0.6709491
0.4776943 -0.578962 0.19216038 0.44466272 0.8529474 -0.1648069 -0.10309838 0.597133
0.7022126 0.052481867 -1.0337108 0.35630903 -0.46228874 0.6578818 0.29154384 -0.28663382
-0.6832201 0.7978506 -0.8987686 -0.09535845 0.037073582 -0.6174731 0.8029841 -0.7247773
0.18298438 0.3161133 -1.2208395 0.95661217 1.4412986 0.8583425 0.02236986 0.2913973
1.4553822 -0.09932221 0.57911193 1.19063 0.046612944 1.4087074 0.23953488 1.4403981
0.62090605 0.5989492 0.5699338 1.5262828 1.2219828 0.13865125 -1.1066153 0.79646844
0.38693938 1.0991673 0.03291283 -0.39657858 0.97030437 1.3426846 0.17849037 0.4357115
-0.6551808 -0.084112704 -0.17996512 -0.2615437 -0.8562876 -0.51335067 0.70643485 -0.11669187
1.0386922 -1.765246 0.43728703 1.1227387 0.45103714 1.0506564 1.0497361 0.3695884

conv2.bias f4 [32]
00000000: 5e2d b7bc 26d3 64bd 60fa 923c 8716 b13c
00000010: d6a1 8cba 5657 83bc 883b b03d 0155 203d
00000020: 3ad9 21bc 4f8d 83bd b9a6 8c3b 399b 873b
00000030: 1840 a8bc df53 25bd c0de 05bd b280 9f3d
00000040: 6630 e3bc 9a8b 70bb 2b67 21bd 049c 7ebc
00000050: 4d25 0c3d a245 0bbd 63db d9bb bc2d b53c
00000060: d787 d1bc cc80 b03c 47fc 2abc 20ad 923c
00000070: 6cbc 7a3d 2a35 dfbb d72e 3a3d ef69 48bd
-0.0223605 -0.05586543 0.017941654 0.021617187 -0.0010729383 -0.016032856 0.08605105 0.039143566
-0.009878451 -0.06423437 0.004292336 0.004138377 -0.020538375 -0.04036319 -0.032683134 0.077882186
-0.02773304 -0.0036704303 -0.03940503 -0.015540127 0.03421526 -0.034001954 -0.0066484674 0.022116534
-0.025577469 0.02154579 -0.010436124 0.017904818 0.06121485 -0.0068117576 0.045454826 -0.04892915

bn2.weight f4 [32]
00000000: f7d9 4a3f 0580 b33f 44fc dd3f e515 ad3f
00000010: 9c38 ac3f 2dfe c03f 42c3 c13f bdaf ec3f
00000020: cd87 353f 3290 b23f 42b4 943f 9d04 cf3f
00000030: 5732 ce3f 5a3b 883f 030b b73f d737 833f
00000040: 39ae c53f b2f1 ce3f f5a2 b43f 312b f63f
00000050: 332c 0a40 2316 743f 9e0c 2040 5a0f bf3f
00000060: 1f7c 113f 36e1 dc3f 5e46 923f 48c6 9c3f
00000070: 0a63 1540 f002 8e3f 680b ec3f 2a52 dc3f
0.7923884 1.4023443 1.734261 1.3522307 1.3454776 1.5077568 1.5137713 1.8491131
0.7091034 1.3950255 1.161751 1.6173283 1.6109113 1.0643113 1.4300236 1.0251416
1.5443794 1.616751 1.411223 1.9231931 2.1589477 0.9534628 2.50077 1.492656
0.5683002 1.7256229 1.1427724 1.2248011 2.3341699 1.1094646 1.8440981 1.7212574

bn2.bias f4 [32]
00000000: d603 ccbe dd7d e0be cd05 d2bd fe01 243e
00000010: 3308 0dbf c900 3e3c e059 3fbe 04c8 33bf
00000020: 7386 a5be 8d8e 42bf 8f48 e3be fa2f 8fbe
00000030: 99d7 4abf af3f fabe e511 81bf ed85 a8be
00000040: 27f7 ebbe a251 a83d 8b70 953d cd40 c2bd
00000050: e96a 283e 8bde 2dbf be14 983e a88f e3be
00000060: 1f78 a8be f76f b1be d3d1 b7be 764b 753e
00000070: 4685 753f 3b7d 83be 12c9 4abe c562 5a3e
-0.39846677 -0.43846026 -0.10255013 0.16016385 -0.55090636 0.011596867 -0.18686628 -0.70227075
-0.3232914 -0.75998765 -0.44391295 -0.2796629 -0.79235226 -0.48876712 -1.0083586 -0.32914677
-0.46087 0.08218695 0.072968565 -0.09485016 0.16447033 -0.679177 0.29703325 -0.4444554
-0.32904145 -0.34655735 -0.3590227 0.23954567 0.95906484 -0.2568148 -0.19803265 0.2132674

bn2.running_mean f4 [32]
00000000: 62ae 0442 9b65 25c1 5925 b9c1 913a b0c1
00000010: 45d7 8a41 eef0 c6c1 fa24 11c2 6232 c840
00000020: 4df5 c441 e05c 103f d958 9941 83c3 28c2
00000030: 452c 65c1 cc91 aa41 abe2 af41 cd37 29c1
00000040: 3163 c741 641c f6c1 0f98 69c1 e10a e3c1
00000050: cf28 e4c1 56ed 0a42 a3bb b6c1 1f63 42c1
00000060: c7d9 aa41 b6cb 7c40 4776 d341 4bd3 16c2
00000070: 3fc0 b7c1 e367 b541 6b75 d5c1 d011 23c2
33.170296 -10.337306 -23.143236 -22.028597 17.355112 -24.867641 -36.28611 6.2561502
24.619776 0.56391716 19.168383 -42.19093 -14.323308 21.32119 21.985678 -10.576123
24.923433 -30.763863 -14.599624 -28.380312 -28.519926 34.731773 -22.84162 -12.1491995
21.356337 3.9499335 26.432753 -37.70634 -22.96887 22.675726 -26.682333 -40.767395

bn2.running_var f4 [32]
00000000: 668b 8b44 71a5 a744 5cd5 de44 c6e5 7444
00000010: 7059 ad44 0dd8 f044 34ce d944 1649 ad44
00000020: cca5 1345 48d9 9844 efb1 b744 cdc1 e444
00000030: 3b6f a444 2682 f044 1991 cf44 6520 b344
00000040: e946 e644 6438 0145 d8cf 4e44 f08e ec44
00000050: f9c8 d844 559b eb44 4a3b b544 6cfe c444
00000060: b56b e844 8748 6044 112c eb44 d4be 4445
00000070: 8c30 d144 abdd e344 531c c444 679b 3745
1116.3562 1341.17 1782.6675 979.5902 1386.7949 1926.7516 1742.4438 1386.2839
2362.3623 1222.79 1469.5604 1830.0563 1315.476 1924.0671 1660.5343 1433.0123
1842.216 2067.5244 827.24756 1892.4668 1734.2804 1884.8541 1449.8528 1575.9507
1859.3658 897.13324 1881.3771 3147.9268 1673.5171 1822.9271 1568.8851 2937.7126

conv3.weight f4 [32, 32, 5, 5]
00000000: 8890 1bbf 2d61 b33e c4ef 3abf 281c 193e
00000010: ac45 f13e a26c 07bf 8524 7e3f e370 d0be
00000020: a532 a83e 51dc 683f 6a24 67bf b60e d03e
00000030: 2913 89bd 18fb 23be 4b44 473c 2101 c3bf
00000040: 0b50 44bf c020 db3e d84a 27bf 28a9 85bf
00000050: 3c58 dabe 6176 81bf c387 6cbd f241 723e
00000060: 1b3d 60bf ae6a 973f dfaa 8ebf d226 c33f
00000070: df7a e5bd c00f 183f 1ffb cd3f 05cc 4cbf
00000080: be25 06bf cd0b 9c3f 1d6a 0dc0 7700 103f
00000090: 7508 a8bf cd1d 3abf c56e 533e ba3e 5bbf
000000a0: 3d2c f73d 3912 5abf 95d4 d93e ab70 4bbf
000000b0: 8733 8d3b 0e8f ddbe b37e 27bf 53bc adbf
000000c0: cb42 61bf 326c 33bf 0e2e b7bf 9f85 21bf
000000d0: 0cdd 36bf 7aee 123f 6e5b 3dbf aa66 85bf
000000e0: 7f58 51bf 486b c8be aabe be3f d896 49be
000000f0: 2349 ab3e ad4b ad3d a919 8abd 7732 2ebe
00000100: a07a 66bf 34ec 533f 6e98 97bf 8124 5c3e
00000110: 4148 0d3f ab20 0440 5407 93be 438e 623e
00000120: 06f1 413f 9342 d93e 1bf9 0f3f 941c 87bf
00000130: 8144 ba3e 0149 c03f a97b 31bf ddf3 0ebf
00000140: 9ad2 bb3f cc7e a8be ccd1 2abe d4fb e1be
00000150: 6d88 5dbf 9d45 4dbf e33d 5abf 0beb 9e3f
00000160: 18f9 2ebf 0d36 1940 8705 033f 3c23 bb3f
00000170: 93dc 753e 97ad f33e d37a 26bf ff1a 243d
00000180: 7060 193f 482d 61bf 5cbd 9fbe c7d2 183f
00000190: aa76 0cbf 1a02 12bf df95 5cbf d0ac b0bf
000001a0: 165f 4abd c6c5 47be 5902 fdbd 4576 19bf
000001b0: f301 39bf 2068 88bf defc ab3e 9e54 d53e
000001c0: 1300 573c bd18 8cbf 639f 41bf 54e5 07bf
000001d0: 7f5e a23e 4c96 d8be 565a d3be d32d 74bf
000001e0: e061 8dbe e160 e1bf 381f 9ebe afe0 8ebf
000001f0: 8d13 0fbf f65f cebf 28e3 19bf 06b8 843e
00000200: 73d5 593f 6ade b3be 4ed1 44bf 34ef f53e
00000210: eada 22bf b139 19bf a41d dcbe 0000 063f
00000220: 11df bd3d 3b69 053f b224 133f 80d6 2a3f
00000230: 905d 1f3f 4621 f53e 7e57 a43e 10b6 543e
00000240: 8f75 8e3f a114 073d fe10 b73e 68eb 8abe
00000250: c4dc 043f 6989 1d3f 1af0 04c0 b37f 7bbd
00000260: 5d44 bfbf 9d55 a83d 1857 6e3e df33 0a3e
00000270: bb3b fa3e b392 433f a92d fabe 1850 e43f
00000280: e541 55bf 918b 43bd c536 173f e943 1abd
00000290: 9c66 02bf 0969 b03f a163 f9bd c9bb 433e
000002a0: 9161 b83f ca34 d73f 16a4 d93e 4a6b 10bf
000002b0: c024 f03f 7478 943f 9e31 973f a74a e23f
000002c0: da14 e33e 4ef0 05bf 48dd 843f 913a 4dbe
000002d0: 9fee 4d3f 1081 ad3e 3e99 1f3e 786c 753e
000002e0: 0506 e3bc 6108 27bf 3aed e63d 655d 9d3d
000002f0: 9b4e 423f 67e5 05c0 35f1 3abe 71f2 5fbf
00000300: 1d9d 53bf 4522 4abf 4e08 58bf 0e7a 2a3f
00000310: e8f0 17bf f7ce 82bf ed54 babf df05 06c0
00000320: 73ad 5fbe c4df 4a3f f6c5 05bf 231f e6bf
00000330: ae57 7bbf 3cfe 983f df9e 2f3e a066 cabe
00000340: 017f 25bf 949a 1ebf b8fb 8dbf 8275 c63d
00000350: a2c8 223f 66da 48bc 2a35 0ebf f1f8 a8bf
00000360: d0ed 5c3e 9233 283f f52d 51bf 6200 87bf
00000370: 6b9b 40be da1b b7bf c776 d8be 56d9 e4bd
00000380: 13e9 40bf 6d4c 883f a642 8b3f 6216 c93e
00000390: 9d4d 363f 53e2 893f 297e 40bf 2663 153c
000003a0: dd86 603f c014 b93e edde d4bf f01d 7e3d
000003b0: 010a 63bf c5e0 bdbf e311 2dbf 492c 02bf
000003c0: c153 91be f08d 83bf c8db d73d 71f6 c2bf
000003d0: 7ee2 99be 3e1e 89bf cc23 80bf 5eae ecbe
000003e0: 0445 69bf d67b 253e 16f1 ae3e f0fa 253f
000003f0: 92bd 37bf 1314 8cbe 0e13 0ebf 6ce9 233e
-0.6076741 0.35035077 -0.73022103 0.14952147 0.47123468 -0.52900136 0.99274474 -0.40711126
0.3285114 0.90961176 -0.9028994 0.40636224 -0.06693108 -0.16013753 0.012162278 -1.523472
-0.76684636 0.42798424 -0.6534858 -1.0442247 -0.42645442 -1.0114251 -0.05774666 0.23657969
-0.8759324 1.1829431 -1.1145896 1.5246222 -0.112050764 0.5939903 1.6092261 -0.7999881
-0.5240134 1.2191101 -2.2096016 0.5625071 -1.3127581 -0.7270172 0.20647724 -0.8564259
0.12068985 -0.85184056 0.42545 -0.7946879 0.004309121 -0.43273205 -0.654277 -1.3573097
-0.87992543 -0.7008697 -1.431093 -0.63094515 -0.7143104 0.57395136 -0.73967636 -1.0421956
-0.8177566 -0.3914435 1.4901936 -0.19686449 0.33454236 0.084617 -0.067431755 -0.17011438
-0.9003086 0.8278229 -1.1843393 0.214983 0.55188376 2.064494 -0.28716528 0.22124581
0.757584 0.42433605 0.5623948 -1.0555596 0.3638039 1.5022279 -0.69329315 -0.55840856
1.4673645 -0.32909238 -0.16681594 -0.44137442 -0.86536294 -0.80184346 -0.8525068 1.241548
-0.68348837 2.393924 0.5118031 1.4620128 0.24009924 0.47593376 -0.65031165 0.040064808
0.59912777 -0.8795972 -0.31199157 0.5969662 -0.54868567 -0.57034457 -0.86166185 -1.3802738
-0.049407087 -0.19509038 -0.123539634 -0.5994609 -0.722686 -1.0656776 0.3359136 0.4166612
0.013122576 -1.094505 -0.7563383 -0.530843 0.3171272 -0.42302167 -0.41279858 -0.9538242
-0.27613735 -1.760769 -0.30883193 -1.1162318 -0.5588921 -1.6123035 -0.6011224 0.2592165
0.8509132 -0.35130626 -0.76881874 0.4803406 -0.63615286 -0.59853655 -0.42991364 0.5234375
0.09271062 0.52113694 0.5747787 0.6673355 0.6225214 0.47876948 0.32098 0.20772576
1.1129626 0.032978658 0.35755152 -0.27132726 0.5189936 0.61537796 -2.0771546 -0.06140108
-1.4942738 0.082194544 0.23275411 0.1349635 0.48873696 0.7639572 -0.4886296 1.7836943
-0.8330367 -0.047740523 0.59067947 -0.03766242 -0.5093782 1.3782054 -0.12177206 0.19114603
1.4404775 1.6812985 0.42508 -0.5641371 1.8761215 1.1599259 1.1812017 1.7679032
0.44351846 -0.523198 1.038003 -0.20041873 0.8044223 0.3388753 0.15585801 0.23967159
-0.027712831 -0.6524716 0.11275716 0.07683829 0.7590119 -2.0921266 -0.18256076 -0.8747931
-0.8266161 -0.7895854 -0.8438767 0.6659249 -0.5935197 -1.0219411 -1.4557167 -2.0941083
-0.2184351 0.7924769 -0.5225519 -1.7978252 -0.98180664 1.1952586 0.17150448 -0.39531422
-0.6464692 -0.6195462 -1.1092443 0.096903816 0.6358739 -0.0122591015 -0.5554987 -1.3200971
0.21575093 0.6570369 -0.8171075 -1.0546992 -0.18809287 -1.4305375 -0.4227812 -0.11174266
-0.75355643 1.0648323 1.0879714 0.3927489 0.7121218 1.0772194 -0.75192505 0.009117877
0.87705785 0.36148643 -1.6630532 0.06204027 -0.8868714 -1.4834219 -0.6760542 -0.50848824
-0.28384212 -1.0277691 0.10539967 -1.5231458 -0.30055612 -1.0712354 -1.0010924 -0.46226782
-0.91120934 0.16160521 0.3416831 0.64836025 -0.71773636 -0.27359065 -0.55497825 0.16007012

conv3.bias f4 [32]
00000000: 970b 213d 6314 a6bd e134 e03d 810c 843d
00000010: a7d3 e0bd 0388 163e 7c79 25be 5fab e4bd
00000020: da26 86bd 2236 bbbc ddf6 153d 75aa 41bd
00000030: 138f b93c 4070 78bd 6fb0 013d 2233 80bc
00000040: 918e 0d3b a001 413c 8984 a3bd b538 923c
00000050: f5ad abbd 4b95 403b 5f41 72bd ba61 9bbd
00000060: 7434 44be aadd 583d 1a2c 4bbd a456 8ebd
00000070: 08a5 9dbd 22c4 19be 1034 ae3d 762a d1bd
0.039317694 -0.08109357 0.10947586 0.064476974 -0.109778695 0.14700322 -0.16159624 -0.11165499
-0.06550379 -0.022852961 0.03661238 -0.0472817 0.02265123 -0.060653925 0.0316624 -0.015649382
0.0021599869 0.011780173 -0.079842634 0.017849306 -0.08382789 0.002938586 -0.059144374 -0.07586999
-0.19160634 0.05294577 -0.049602605 -0.06950119 -0.07697493 -0.15016225 0.08506024 -0.10213177

bn3.weight f4 [32]
00000000: c24b 253f 17ba ed3e 39a7 993e 4d4f 183f
00000010: 7df7 4f3f b508 0b3f 520d 3d3f 4cd1 583f
00000020: a1b0 9e3e 2c42 243f 3166 3d3f 5c38 293f
00000030: 23b2 373f 64cb 343f 41bf ee3e 4da1 3e3e
00000040: 5d00 013f 2bc3 de3d f89c 6a3e ab47 0d3f
00000050: 0edf 003f 4228 103f 7c3a 833e 41d2 1b3f
00000060: 3a43 3f3f b7e9 1a3f 2ef4 0b3f 52ea 0e3f
00000070: c962 2d3f bf51 323f 1bcf fc3e 30e1 133f
0.6456872 0.46431038 0.30010393 0.59496003 0.8123701 0.5431016 0.7384845 0.8469436
0.30994132 0.6416347 0.73984057 0.6610162 0.7175619 0.7062285 0.4663029 0.18616219
0.5039118 0.10877069 0.22911441 0.5518748 0.50340354 0.5631143 0.25630558 0.60867697
0.74711955 0.6051287 0.54669464 0.55826294 0.6772886 0.69655985 0.4937676 0.57765484

bn3.bias f4 [32]
00000000: 653c 3dbf c710 70bf effc 63bf 9035 28bf
00000010: ca13 84bf 47d6 f9be baf5 7bbf 231f 8fbf
00000020: a820 43bf 86eb 57bf 3ddb 71bf 4b08 67bf
00000030: 2907 5fbf b6f7 62bf 8636 bbbe 9ce7 0ebf
00000040: 286d 5cbf 935e 47bf 6949 41bf 7521 69bf
00000050: 726d 14bf fa8e 22bf 3a1d 62bf e429 53bf
00000060: de8e 073f a494 4bbf 7784 45bf e682 1ebf
00000070: fd3b 63bf 34b4 51bf 4e59 5bbf 9b44 2ebf
-0.7392028 -0.937756 -0.8905782 -0.6570673 -1.0318539 -0.48796293 -0.98421824 -1.1181377
-0.76221704 -0.84343755 -0.94475156 -0.9024703 -0.871203 -0.88659227 -0.36565036 -0.5582216
-0.8610406 -0.77878684 -0.7550264 -0.91066676 -0.579795 -0.63499415 -0.88325846 -0.82485795
0.52952373 -0.7952368 -0.7715525 -0.61918485 -0.8876341 -0.81915593 -0.85683143 -0.68073434

bn3.running_mean f4 [32]
00000000: 018a c4c1 d0b0 17c2 f769 f8c1 dca6 95c2
00000010: 3ccb 93c2 73ba f7c2 8dc9 abc2 f6cd aec2
00000020: 18bc 24c2 ca97 37c2 be12 7cc2 9d54 afc0
00000030: 5519 66c2 eb69 46c2 17e3 84c2 009e 0bc2
00000040: 0761 afc2 41d3 24c2 9683 c0c1 b57c a0c2
00000050: 2747 8ec2 7cf0 01c3 9cc1 8cc1 df44 18c2
00000060: f80a 6dc1 2653 92c2 245b e8c1 965a efc2
00000070: ca7e 7dc2 8969 a0c2 5b84 a2c2 3088 adc2
-24.567385 -37.92267 -31.05174 -74.8259 -73.89694 -123.86416 -85.893654 -87.40227
-41.183685 -45.89823 -63.018303 -5.479079 -57.52474 -49.603436 -66.443535 -34.904297
-87.68951 -41.206303 -24.06425 -80.24357 -71.13897 -129.93939 -17.594536 -38.067257
-14.815178 -73.1624 -29.044502 -119.676926 -63.373817 -80.20612 -81.25851 -86.76599

bn3.running_var f4 [32]
00000000: b15f 2445 ed44 c844 5d59 8644 43df 2445
00000010: ef2c 2345 51de 1f45 d66f db44 3a92 ba45
00000020: abda 3b44 ff9f 1f45 df0a 3745 8dcf 2945
00000030: 0bb5 0f45 1f73 1345 5ccb f444 e64d a343
00000040: 6c9a ec44 39f4 8144 15e3 b744 27fa 2045
00000050: c0be 4245 6305 1a45 f201 0145 4cbf 1245
00000060: 0868 6445 e924 2c45 1035 1845 861e f644
00000070: f02c 0e45 634a e544 8c1d 0045 41a6 0c45
2629.9807 1602.1539 1074.7926 2637.9539 2610.8083 2557.8948 1755.4949 5970.2783
751.4167 2553.9998 2928.6794 2716.972 2299.3152 2359.195 1958.355 326.60858
1892.8257 1039.632 1471.0963 2575.6345 3115.9219 2464.3367 2064.1216 2347.956
3654.502 2754.307 2435.3164 1968.9539 2274.8086 1834.3246 2049.8467 2250.3909

head.weight f4 [6, 1568]
00000000: 7fbe 7abf 80ee 42be 93f2 093f 8dc2 f3bd
00000010: c1cd b73f 75a2 143f 20f1 44bf aa86 c93e
00000020: b928 bc3f 47fd 35bf 1c56 cf3e efa6 273e
00000030: 89a9 29bf cef5 c7bf e4a7 613f 6490 773f
00000040: 1355 6f3f 8abb 6ebf 50ec 0cbe 19b1 0fbe
00000050: 0d26 a53f 947d 2a3f f16c 7a3f 0852 0cc0
00000060: f0c3 a3be 4120 23bf 17ad 4e3f a4e8 69be
00000070: ec50 4abf c4ea 14bf f80c 5e3f 7c74 8b3e
00000080: 2fae 093e 62b4 c03e 61b9 00be 36a0 43bf
00000090: f7ec ae3f cb3c ff3e 92c0 c03e baba b2bf
000000a0: b35c e0be a1ff 82be 4047 333e d602 033e
000000b0: 4c10 e3be 58da 23bf cdef cfbe 8958 263e
000000c0: b701 b7bc 6f46 b63e f1af 2dbf d5a9 b73c
000000d0: bb3e 873f 6db7 0ebf e9b3 f3be 99ac f7bb
000000e0: 025a 48bf 3bf6 34bf c5e3 c13e 31cb 0ebf
000000f0: db53 f53e f4a8 023f e5d3 8c3f e707 f93d
00000100: ef3d 1e3f 2f8d 10bf 5f2b 8a3f 4639 e0bf
00000110: a4b5 293e f8d6 5c3f 49b8 c13e 5eb9 27be
00000120: ca12 2fbf 71f4 c2bd 876e 17bf 2f38 c0be
00000130: 027b 1b3f 0266 99be 4a87 e63d 9d3b 26bf
00000140: 6695 043f 7fcc d43e 8fb1 87bf 0b94 1c3f
00000150: 2052 37bf 9290 a13f abbf 0e3e e240 873f
00000160: f980 a63e 50ea 14bf 8c8d c0be 3438 09be
00000170: 2cab dfbe 9cad a83e b474 e63e 7ba2 083f
00000180: 5e44 49be abed c9ba cdd5 a13e 360c 5bbe
00000190: 9f04 9e3d 19b8 0bbd 2358 ebbc 439d 25be
000001a0: 5ce4 d5be 9d57 f33e e3b1 93be 43ab 2a3d
000001b0: dabd 30be acac 4f3d c2c5 edbe 71a7 6dbe
000001c0: 1c18 f8bd a190 78bd 1699 2d3e 23ff d0ba
000001d0: 1984 a8bd 8b13 3c3e f8f2 a03e b08f 243e
000001e0: 469f 91bc 97c2 043f fae6 be3e 7c49 6fbe
000001f0: da6d 18bf 0e8c 943d 8153 43bc 68b7 ccbe
00000200: 3fe0 e5bb 17e8 803b e861 8a3e 8acc 8a3d
00000210: 67aa 123e acfa 31be feae 5abc 8d7d 11bd
00000220: 31a3 293e bf43 e1bc 098d b8bc e8fd 13b9
00000230: f077 a53e d7c0 32be c434 393d 5474 6abe
00000240: c381 c13d 0c84 b83e ee5a ee3d e0fa 78bf
00000250: 10e4 933d b923 91bf b0dd 133d ac71 9abf
00000260: 608c 82be 0060 44bf f797 173f 8c56 8abe
00000270: 3564 86bf 887c 0bbf 96dd 7c3f 1249 c73e
00000280: e719 093f d1d2 903e c952 ddbe f3a5 e8bc
00000290: 22b3 3f3e a4f8 f7be be4f bdbf 43a5 3dbd
000002a0: 7c1e ee3e 61a1 163e c731 6dbf 2da3 c6be
000002b0: 9d45 313e 8a6d 0c3e c10c 7b3f 6b72 8b3f
000002c0: 0c49 fc3e fc32 c7bd f359 983b 4c77 953e
000002d0: 426a d83e 56d2 d4bd 43e4 0b3e d637 843d
000002e0: 422b 71bf da11 1a3d f7d5 dabe 75ab 6f3e
000002f0: f6ad 31bf f069 acbf 7ab2 67bf 4763 87bf
00000300: 8ed2 ad3e 9669 55bf ff11 1d3f 1d75 023f
00000310: 12b1 633f b19f b5bf eb82 fbbe 2888 b03f
00000320: f1a7 86bf b484 393f 28ee 983f 4346 ad3e
00000330: 12eb 46bf b4c9 a2bf c6ad 683f 9bb4 23bd
00000340: eb91 f13d 3ed5 133f 256f 24bf 5b21 383f
00000350: c6f0 ba3f 3b96 69bf c00e b93f 9ee1 12bf
00000360: 3864 8a3f 953a 833f d4fc 14bd 1ab2 f8bd
00000370: f049 e2bc 7f35 babd 99a9 dabd 8f48 9e3f
00000380: dcf8 bf3e f709 a83f a600 96be 951f a13d
00000390: 861d 77bf a8f3 37bf e5a2 8c3d e3e4 ef3c
000003a0: 8add 1e3f 4ac5 b2bf b5e4 9a3e 1c1d 20bf
000003b0: 0222 133f 0301 96bf a86f 383e 5fb7 08bf
000003c0: e99e 9bbf 3bf4 703f 8c80 34bf 981c 653f
000003d0: 49f9 a53f 0acd 8d3f fbfc 49be 716c b23d
000003e0: 554b eabe 9b8d a63e d85c fe3d 800d 773f
000003f0: e1fb 35bf 6d5c 1abf aeb6 aebf 9a62 8dbf
-0.97946924 -0.19036293 0.53885764 -0.11902342 1.4359666 0.5806039 -0.7693043 0.39360553
1.4699928 -0.71089596 0.40495384 0.16372274 -0.66274315 -1.5621889 0.88146806 0.967047
0.9348919 -0.9325491 -0.13762021 -0.14032401 1.2902237 0.66597867 0.9782248 -2.1925068
-0.31985426 -0.6372109 0.80732864 -0.22842652 -0.79029727 -0.58170724 0.8673854 0.27237308
0.13445352 0.3763762 -0.12570716 -0.7641634 1.3666066 0.4985107 0.3764692 -1.3963234
-0.43820724 -0.25585654 0.17507648 0.1279405 -0.4434837 -0.6400504 -0.4061264 0.16244711
-0.022339685 0.35600612 -0.6784659 0.02241985 1.0566019 -0.55748636 -0.47598198 -0.007558417
-0.7826234 -0.7068822 0.37869087 -0.55778795 0.4791554 0.5103905 1.1002165 0.121597104
0.61813253 -0.5646543 1.0794486 -1.7517478 0.16573197 0.86265516 0.3783591 -0.16379306
-0.68388045 -0.0951928 -0.59153026 -0.37542865 0.6073457 -0.29960638 0.11256273 -0.6493471
0.51790464 0.41562268 -1.0601062 0.61163396 -0.7160969 1.2622244 0.13940303 1.0566676
0.32520273 -0.5817003 -0.37607992 -0.13400346 -0.4368528 0.32944953 0.45010912 0.53372926
-0.19654986 -0.0015405914 0.3160843 -0.21391377 0.07715725 -0.034111116 -0.02872855 -0.16173272
-0.41775787 0.4752778 -0.28846654 0.041667234 -0.17259923 0.050701782 -0.4643994 -0.23208405
-0.121139735 -0.060684804 0.16952929 -0.0015945177 -0.08228321 0.1836683 0.3143537 0.16070437
-0.017776143 0.5185942 0.37285596 -0.23367876 -0.5954262 0.07253276 -0.011921764 -0.39983678
-0.0070152576 0.0039339173 0.27027822 0.06777294 0.14322816 -0.1738078 -0.013347385 -0.035520125
0.16566159 -0.027498124 -0.022528188 -0.000141136 0.32318068 -0.17456375 0.045216337 -0.22895938
0.09448578 0.36038244 0.11638437 -0.97257805 0.07221234 -1.1339027 0.03610009 -1.206594
-0.25497723 -0.76708984 0.59216255 -0.27019155 -1.0499331 -0.54486895 0.98775613 0.38922936
0.5355515 0.2828584 -0.43227223 -0.028399443 0.18720677 -0.48431885 -1.478996 -0.046300184
0.46507633 0.14709999 -0.9265408 -0.38796368 0.17311712 0.13713661 0.98066336 1.0894293
0.4927448 -0.097265214 0.0046493947 0.2919258 0.42268568 -0.10391681 0.13661294 0.06455962
-0.9420663 0.03761468 -0.42741367 0.2340525 -0.6940607 -1.346983 -0.9050671 -1.0577172
0.33949703 -0.83364236 0.61355585 0.5095995 0.8894206 -1.4189359 -0.4912332 1.3791552
-1.0520002 0.72468114 1.194768 0.33842668 -0.7770244 -1.2717805 0.9089016 -0.03996716
0.1179541 0.57747257 -0.64232093 0.71925896 1.4604728 -0.9124486 1.4457626 -0.57375515
1.0811834 1.0252253 -0.03637393 -0.12143345 -0.027623147 -0.09092235 -0.106768794 1.2365893
0.37494552 1.3128041 -0.2929737 0.07867352 -0.96529424 -0.71856165 0.06867007 0.029283946
0.6205679 -1.3966458 0.30252615 -0.6254442 0.57473767 -1.1719059 0.18011343 -0.534048
-1.215787 0.94122666 -0.70508647 0.89496756 1.2966701 1.1078198 -0.1972541 0.0871209
-0.457606 0.3252991 0.12420052 0.96504974 -0.7108746 -0.6029728 -1.36495 -1.1045716

head.bias f4 [6]
00000000: 168b a5bf e4cf d4bf ef08 38c0 785a 2cc0
00000010: d8c5 adbf cda1 c4bf
-1.2933071 -1.6625943 -2.8755453 -2.6930218 -1.3576002 -1.5361878
